…
    "metadata": {
     "scrolled": true
    },
@@ -954,29 +422,29 @@
   },
   {
    "cell_type": "code",
-   "execution_count": 14,
+   "execution_count": 34,
    "metadata": {},
    "outputs": [
     {
      "name": "stdout",
      "output_type": "stream",
      "text": [
-      "Model: \"sequential_1\"\n",
+      "Model: \"sequential_2\"\n",
       "_________________________________________________________________\n",
       "Layer (type)                 Output Shape              Param #   \n",
       "=================================================================\n",
-      "conv2d_1 (Conv2D)            (None, 18, 9, 32)         320       \n",
+      "conv2d_2 (Conv2D)            (None, 18, 9, 32)         320       \n",
       "_________________________________________________________________\n",
-      "max_pooling2d_1 (MaxPooling2 (None, 9, 4, 32)          0         \n",
+      "max_pooling2d_2 (MaxPooling2 (None, 9, 4, 32)          0         \n",
       "_________________________________________________________________\n",
-      "flatten_1 (Flatten)          (None, 1152)              0         \n",
+      "flatten_2 (Flatten)          (None, 1152)              0         \n",
       "_________________________________________________________________\n",
-      "dense_1 (Dense)              (None, 128)               147584    \n",
+      "dense_3 (Dense)              (None, 128)               147584    \n",
       "_________________________________________________________________\n",
-      "dense_2 (Dense)              (None, 10)                1290      \n",
+      "dense_4 (Dense)              (None, 12)                1548      \n",
       "=================================================================\n",
-      "Total params: 149,194\n",
-      "Trainable params: 149,194\n",
+      "Total params: 149,452\n",
+      "Trainable params: 149,452\n",
       "Non-trainable params: 0\n",
       "_________________________________________________________________\n"
      ]
@@ -989,48 +457,82 @@
   },
   {
    "cell_type": "code",
…
