…
      "output_type": "stream",
      "text": [
-      "WARNING:tensorflow:From C:\\ProgramData\\Anaconda3\\lib\\site-packages\\keras\\backend\\tensorflow_backend.py:4070: The name tf.nn.max_pool is deprecated. Please use tf.nn.max_pool2d instead.\n",
-      "\n",
-      "Model: \"sequential_1\"\n",
+      "Model: \"sequential_4\"\n",
       "_________________________________________________________________\n",
       "Layer (type)                 Output Shape              Param #   \n",
       "=================================================================\n",
-      "conv2d_1 (Conv2D)            (None, 48, 19, 24)        240       \n",
+      "conv2d_10 (Conv2D)           (None, 126, 30, 21)       210       \n",
       "_________________________________________________________________\n",
-      "max_pooling2d_1 (MaxPooling2 (None, 24, 9, 24)         0         \n",
+      "max_pooling2d_7 (MaxPooling2 (None, 63, 15, 21)        0         \n",
       "_________________________________________________________________\n",
-      "activation_1 (Activation)    (None, 24, 9, 24)         0         \n",
+      "activation_16 (Activation)   (None, 63, 15, 21)        0         \n",
       "_________________________________________________________________\n",
-      "conv2d_2 (Conv2D)            (None, 22, 7, 48)         10416     \n",
+      "conv2d_11 (Conv2D)           (None, 61, 13, 48)        9120      \n",
       "_________________________________________________________________\n",
-      "max_pooling2d_2 (MaxPooling2 (None, 11, 3, 48)         0         \n",
+      "max_pooling2d_8 (MaxPooling2 (None, 30, 6, 48)         0         \n",
       "_________________________________________________________________\n",
-      "activation_2 (Activation)    (None, 11, 3, 48)         0         \n",
+      "activation_17 (Activation)   (None, 30, 6, 48)         0         \n",
       "_________________________________________________________________\n",
-      "conv2d_3 (Conv2D)            (None, 9, 3, 48)          6960      \n",
+      "conv2d_12 (Conv2D)           (None, 28, 6, 48)         6960      \n",
       "_________________________________________________________________\n",
-      "activation_3 (Activation)    (None, 9, 3, 48)          0         \n",
+      "activation_18 (Activation)   (None, 28, 6, 48)         0         \n",
       "_________________________________________________________________\n",
-      "flatten_1 (Flatten)          (None, 1296)              0         \n",
+      "flatten_4 (Flatten)          (None, 8064)              0         \n",
       "_________________________________________________________________\n",
-      "dropout_1 (Dropout)          (None, 1296)              0         \n",
+      "dropout_7 (Dropout)          (None, 8064)              0         \n",
       "_________________________________________________________________\n",
-      "dense_1 (Dense)              (None, 64)                83008     \n",
+      "dense_7 (Dense)              (None, 64)                516160    \n",
       "_________________________________________________________________\n",
-      "activation_4 (Activation)    (None, 64)                0         \n",
+      "activation_19 (Activation)   (None, 64)                0         \n",
       "_________________________________________________________________\n",
-      "dropout_2 (Dropout)          (None, 64)                0         \n",
+      "dropout_8 (Dropout)          (None, 64)                0         \n",
       "_________________________________________________________________\n",
-      "dense_2 (Dense)              (None, 7)                 455       \n",
+      "dense_8 (Dense)              (None, 7)                 455       \n",
       "_________________________________________________________________\n",
-      "activation_5 (Activation)    (None, 7)                 0         \n",
+      "activation_20 (Activation)   (None, 7)                 0         \n",
       "=================================================================\n",
-      "Total params: 101,079\n",
-      "Trainable params: 101,079\n",
+      "Total params: 532,905\n",
+      "Trainable params: 532,905\n",
       "Non-trainable params: 0\n",
       "_________________________________________________________________\n"
      ]
@@ -195,7 +235,7 @@
        "\"model.add(Conv2D(32, (3, 3),\\n    input_shape=(config.buckets, config.max_len, channels),\\n    activation='relu'))\\n\\nmodel.add(MaxPooling2D(pool_size=(2, 2)))\\n\\nmodel.add(Flatten())\\n\\nmodel.add(Dense(128, activation='relu'))\\nmodel.add(Dense(num_classes, activation='softmax'))\""
…
@@ -117,7 +117,7 @@
   },
   {
    "cell_type": "code",
-   "execution_count": 13,
+   "execution_count": 21,
    "metadata": {},
    "outputs": [],
    "source": [
@@ -129,7 +129,7 @@
   },
   {
    "cell_type": "code",
-   "execution_count": 14,
+   "execution_count": 22,
    "metadata": {},
    "outputs": [
     {
@@ -140,38 +140,38 @@
       "_________________________________________________________________\n",
       "Layer (type)                 Output Shape              Param #   \n",
       "=================================================================\n",
-      "conv2d_4 (Conv2D)            (None, 48, 19, 24)        240       \n",
+      "conv2d_4 (Conv2D)            (None, 126, 30, 24)       240       \n",
       "_________________________________________________________________\n",
-      "max_pooling2d_3 (MaxPooling2 (None, 24, 9, 24)         0         \n",
+      "max_pooling2d_3 (MaxPooling2 (None, 63, 15, 24)        0         \n",
       "_________________________________________________________________\n",
-      "activation_5 (Activation)    (None, 24, 9, 24)         0         \n",
+      "activation_6 (Activation)    (None, 63, 15, 24)        0         \n",
       "_________________________________________________________________\n",
-      "conv2d_5 (Conv2D)            (None, 22, 7, 48)         10416     \n",
+      "conv2d_5 (Conv2D)            (None, 61, 13, 48)        10416     \n",
       "_________________________________________________________________\n",
-      "max_pooling2d_4 (MaxPooling2 (None, 11, 3, 48)         0         \n",
+      "max_pooling2d_4 (MaxPooling2 (None, 30, 6, 48)         0         \n",
       "_________________________________________________________________\n",
-      "activation_6 (Activation)    (None, 11, 3, 48)         0         \n",
+      "activation_7 (Activation)    (None, 30, 6, 48)         0         \n",
       "_________________________________________________________________\n",
-      "conv2d_6 (Conv2D)            (None, 9, 3, 48)          6960      \n",
+      "conv2d_6 (Conv2D)            (None, 28, 6, 48)         6960      \n",
       "_________________________________________________________________\n",
-      "activation_7 (Activation)    (None, 9, 3, 48)          0         \n",
+      "activation_8 (Activation)    (None, 28, 6, 48)         0         \n",
       "_________________________________________________________________\n",
-      "flatten_2 (Flatten)          (None, 1296)              0         \n",
+      "flatten_2 (Flatten)          (None, 8064)              0         \n",
       "_________________________________________________________________\n",
-      "dropout_3 (Dropout)          (None, 1296)              0         \n",
+      "dropout_3 (Dropout)          (None, 8064)              0         \n",
       "_________________________________________________________________\n",
-      "dense_2 (Dense)              (None, 64)                83008     \n",
+      "dense_3 (Dense)              (None, 64)                516160    \n",
       "_________________________________________________________________\n",
-      "activation_8 (Activation)    (None, 64)                0         \n",
+      "activation_9 (Activation)    (None, 64)                0         \n",
       "_________________________________________________________________\n",
       "dropout_4 (Dropout)          (None, 64)                0         \n",
       "_________________________________________________________________\n",
-      "dense_3 (Dense)              (None, 5)                 325       \n",
+      "dense_4 (Dense)              (None, 5)                 325       \n",
       "_________________________________________________________________\n",
-      "activation_9 (Activation)    (None, 5)                 0         \n",
+      "activation_10 (Activation)   (None, 5)                 0         \n",
       "=================================================================\n",
-      "Total params: 100,949\n",
-      "Trainable params: 100,949\n",
+      "Total params: 534,101\n",
+      "Trainable params: 534,101\n",
       "Non-trainable params: 0\n",
       "_________________________________________________________________\n"
      ]
@@ -182,7 +182,7 @@
        "\"model.add(Conv2D(32, (3, 3),\\n    input_shape=(config.buckets, config.max_len, channels),\\n    activation='relu'))\\n\\nmodel.add(MaxPooling2D(pool_size=(2, 2)))\\n\\nmodel.add(Flatten())\\n\\nmodel.add(Dense(128, activation='relu'))\\nmodel.add(Dense(num_classes, activation='softmax'))\""
…
      "output_type": "stream",
      "text": [
-      "WARNING:tensorflow:From C:\\ProgramData\\Anaconda3\\lib\\site-packages\\keras\\backend\\tensorflow_backend.py:4070: The name tf.nn.max_pool is deprecated. Please use tf.nn.max_pool2d instead.\n",
-      "\n",
-      "Model: \"sequential_1\"\n",
+      "Model: \"sequential_2\"\n",
       "_________________________________________________________________\n",
       "Layer (type)                 Output Shape              Param #   \n",
       "=================================================================\n",
-      "conv2d_1 (Conv2D)            (None, 48, 19, 24)        240       \n",
+      "conv2d_4 (Conv2D)            (None, 126, 30, 24)       240       \n",
       "_________________________________________________________________\n",
-      "max_pooling2d_1 (MaxPooling2 (None, 24, 9, 24)         0         \n",
+      "max_pooling2d_3 (MaxPooling2 (None, 63, 15, 24)        0         \n",
       "_________________________________________________________________\n",
-      "activation_1 (Activation)    (None, 24, 9, 24)         0         \n",
+      "activation_6 (Activation)    (None, 63, 15, 24)        0         \n",
       "_________________________________________________________________\n",
-      "conv2d_2 (Conv2D)            (None, 22, 7, 48)         10416     \n",
+      "conv2d_5 (Conv2D)            (None, 61, 13, 48)        10416     \n",
       "_________________________________________________________________\n",
-      "max_pooling2d_2 (MaxPooling2 (None, 11, 3, 48)         0         \n",
+      "max_pooling2d_4 (MaxPooling2 (None, 30, 6, 48)         0         \n",
       "_________________________________________________________________\n",
-      "activation_2 (Activation)    (None, 11, 3, 48)         0         \n",
+      "activation_7 (Activation)    (None, 30, 6, 48)         0         \n",
       "_________________________________________________________________\n",
-      "conv2d_3 (Conv2D)            (None, 9, 3, 48)          6960      \n",
+      "conv2d_6 (Conv2D)            (None, 28, 6, 48)         6960      \n",
       "_________________________________________________________________\n",
-      "activation_3 (Activation)    (None, 9, 3, 48)          0         \n",
+      "activation_8 (Activation)    (None, 28, 6, 48)         0         \n",
       "_________________________________________________________________\n",
-      "flatten_1 (Flatten)          (None, 1296)              0         \n",
+      "flatten_2 (Flatten)          (None, 8064)              0         \n",
       "_________________________________________________________________\n",
-      "dropout_1 (Dropout)          (None, 1296)              0         \n",
+      "dropout_3 (Dropout)          (None, 8064)              0         \n",
       "_________________________________________________________________\n",
-      "dense_1 (Dense)              (None, 64)                83008     \n",
+      "dense_3 (Dense)              (None, 64)                516160    \n",
       "_________________________________________________________________\n",
-      "activation_4 (Activation)    (None, 64)                0         \n",
+      "activation_9 (Activation)    (None, 64)                0         \n",
       "_________________________________________________________________\n",
-      "dropout_2 (Dropout)          (None, 64)                0         \n",
+      "dropout_4 (Dropout)          (None, 64)                0         \n",
       "_________________________________________________________________\n",
-      "dense_2 (Dense)              (None, 5)                 325       \n",
+      "dense_4 (Dense)              (None, 5)                 325       \n",
       "_________________________________________________________________\n",
-      "activation_5 (Activation)    (None, 5)                 0         \n",
+      "activation_10 (Activation)   (None, 5)                 0         \n",
       "=================================================================\n",
-      "Total params: 100,949\n",
-      "Trainable params: 100,949\n",
+      "Total params: 534,101\n",
+      "Trainable params: 534,101\n",
       "Non-trainable params: 0\n",
       "_________________________________________________________________\n"
      ]
@@ -192,7 +212,7 @@
        "\"model.add(Conv2D(32, (3, 3),\\n    input_shape=(config.buckets, config.max_len, channels),\\n    activation='relu'))\\n\\nmodel.add(MaxPooling2D(pool_size=(2, 2)))\\n\\nmodel.add(Flatten())\\n\\nmodel.add(Dense(128, activation='relu'))\\nmodel.add(Dense(num_classes, activation='softmax'))\""
…
