…
-    "from keras.models import load_model\n",
-    "\n",
-    "# Load the model\n",
-    "loaded_model = load_model('ant_cnn_model.h5')"
-   ]
-  },
-  {
-   "cell_type": "code",
-   "execution_count": 14,
-   "metadata": {},
-   "outputs": [
-    {
-     "name": "stdout",
-     "output_type": "stream",
-     "text": [
-      "Model: \"sequential_1\"\n",
-      "_________________________________________________________________\n",
-      "Layer (type)                 Output Shape              Param #   \n",
-      "=================================================================\n",
-      "conv2d_1 (Conv2D)            (None, 18, 9, 32)         320       \n",
-      "_________________________________________________________________\n",
-      "max_pooling2d_1 (MaxPooling2 (None, 9, 4, 32)          0         \n",
-      "_________________________________________________________________\n",
-      "flatten_1 (Flatten)          (None, 1152)              0         \n",
-      "_________________________________________________________________\n",
-      "dense_1 (Dense)              (None, 128)               147584    \n",
-      "_________________________________________________________________\n",
-      "dense_2 (Dense)              (None, 10)                1290      \n",
-      "=================================================================\n",
-      "Total params: 149,194\n",
-      "Trainable params: 149,194\n",
-      "Non-trainable params: 0\n",
-      "_________________________________________________________________\n"
-     ]
-    }
-   ],
-   "source": [
-    "# Summarize the model\n",
-    "model.summary()"
-   ]
-  },
-  {
-   "cell_type": "code",
…
+    "y_test_hot = to_categorical(y_test)\n",
+    "y_val_hot = to_categorical(y_val)"
    ]
   },
   {
    "cell_type": "code",
-   "execution_count": 8,
+   "execution_count": 49,
    "metadata": {},
-   "outputs": [],
+   "outputs": [
+    {
+     "name": "stdout",
+     "output_type": "stream",
+     "text": [
+      "Model: \"sequential_4\"\n",
+      "_________________________________________________________________\n",
+      "Layer (type)                 Output Shape              Param #   \n",
+      "=================================================================\n",
+      "conv2d_10 (Conv2D)           (None, 126, 30, 21)       210       \n",
+      "_________________________________________________________________\n",
+      "max_pooling2d_7 (MaxPooling2 (None, 63, 15, 21)        0         \n",
+      "_________________________________________________________________\n",
+      "activation_16 (Activation)   (None, 63, 15, 21)        0         \n",
+      "_________________________________________________________________\n",
+      "conv2d_11 (Conv2D)           (None, 61, 13, 48)        9120      \n",
+      "_________________________________________________________________\n",
+      "max_pooling2d_8 (MaxPooling2 (None, 30, 6, 48)         0         \n",
+      "_________________________________________________________________\n",
+      "activation_17 (Activation)   (None, 30, 6, 48)         0         \n",
+      "_________________________________________________________________\n",
+      "conv2d_12 (Conv2D)           (None, 28, 6, 48)         6960      \n",
+      "_________________________________________________________________\n",
+      "activation_18 (Activation)   (None, 28, 6, 48)         0         \n",
+      "_________________________________________________________________\n",
+      "flatten_4 (Flatten)          (None, 8064)              0         \n",
+      "_________________________________________________________________\n",
+      "dropout_7 (Dropout)          (None, 8064)              0         \n",
+      "_________________________________________________________________\n",
+      "dense_7 (Dense)              (None, 64)                516160    \n",
+      "_________________________________________________________________\n",
+      "activation_19 (Activation)   (None, 64)                0         \n",
+      "_________________________________________________________________\n",
+      "dropout_8 (Dropout)          (None, 64)                0         \n",
+      "_________________________________________________________________\n",
+      "dense_8 (Dense)              (None, 7)                 455       \n",
+      "_________________________________________________________________\n",
+      "activation_20 (Activation)   (None, 7)                 0         \n",
+      "=================================================================\n",
+      "Total params: 532,905\n",
+      "Trainable params: 532,905\n",
+      "Non-trainable params: 0\n",
+      "_________________________________________________________________\n"
+     ]
+    },
+    {
+     "data": {
+      "text/plain": [
+       "\"model.add(Conv2D(32, (3, 3),\\n    input_shape=(config.buckets, config.max_len, channels),\\n    activation='relu'))\\n\\nmodel.add(MaxPooling2D(pool_size=(2, 2)))\\n\\nmodel.add(Flatten())\\n\\nmodel.add(Dense(128, activation='relu'))\\nmodel.add(Dense(num_classes, activation='softmax'))\""
…
    "metadata": {
     "scrolled": true
    },
@@ -954,29 +444,49 @@
   },
   {
    "cell_type": "code",
-   "execution_count": 14,
+   "execution_count": 54,
    "metadata": {},
    "outputs": [
     {
      "name": "stdout",
      "output_type": "stream",
      "text": [
-      "Model: \"sequential_1\"\n",
+      "Model: \"sequential_4\"\n",
       "_________________________________________________________________\n",
       "Layer (type)                 Output Shape              Param #   \n",
       "=================================================================\n",
-      "conv2d_1 (Conv2D)            (None, 18, 9, 32)         320       \n",
+      "conv2d_10 (Conv2D)           (None, 126, 30, 21)       210       \n",
+      "_________________________________________________________________\n",
+      "max_pooling2d_7 (MaxPooling2 (None, 63, 15, 21)        0         \n",
+      "_________________________________________________________________\n",
+      "activation_16 (Activation)   (None, 63, 15, 21)        0         \n",
+      "_________________________________________________________________\n",
+      "conv2d_11 (Conv2D)           (None, 61, 13, 48)        9120      \n",
+      "_________________________________________________________________\n",
+      "max_pooling2d_8 (MaxPooling2 (None, 30, 6, 48)         0         \n",
       "_________________________________________________________________\n",
-      "max_pooling2d_1 (MaxPooling2 (None, 9, 4, 32)          0         \n",
+      "activation_17 (Activation)   (None, 30, 6, 48)         0         \n",
       "_________________________________________________________________\n",
-      "flatten_1 (Flatten)          (None, 1152)              0         \n",
+      "conv2d_12 (Conv2D)           (None, 28, 6, 48)         6960      \n",
       "_________________________________________________________________\n",
-      "dense_1 (Dense)              (None, 128)               147584    \n",
+      "activation_18 (Activation)   (None, 28, 6, 48)         0         \n",
       "_________________________________________________________________\n",
-      "dense_2 (Dense)              (None, 10)                1290      \n",
+      "flatten_4 (Flatten)          (None, 8064)              0         \n",
+      "_________________________________________________________________\n",
+      "dropout_7 (Dropout)          (None, 8064)              0         \n",
+      "_________________________________________________________________\n",
+      "dense_7 (Dense)              (None, 64)                516160    \n",
+      "_________________________________________________________________\n",
+      "activation_19 (Activation)   (None, 64)                0         \n",
+      "_________________________________________________________________\n",
+      "dropout_8 (Dropout)          (None, 64)                0         \n",
+      "_________________________________________________________________\n",
+      "dense_8 (Dense)              (None, 7)                 455       \n",
+      "_________________________________________________________________\n",
+      "activation_20 (Activation)   (None, 7)                 0         \n",
       "=================================================================\n",
-      "Total params: 149,194\n",
-      "Trainable params: 149,194\n",
+      "Total params: 532,905\n",
+      "Trainable params: 532,905\n",
       "Non-trainable params: 0\n",
       "_________________________________________________________________\n"
      ]
@@ -989,68 +499,953 @@
   },
   {
    "cell_type": "code",
…
+    "y_test_hot = to_categorical(y_test)\n",
+    "y_val_hot = to_categorical(y_val)"
    ]
   },
   {
    "cell_type": "code",
-   "execution_count": 7,
+   "execution_count": 22,
    "metadata": {},
-   "outputs": [],
+   "outputs": [
+    {
+     "name": "stdout",
+     "output_type": "stream",
+     "text": [
+      "Model: \"sequential_2\"\n",
+      "_________________________________________________________________\n",
+      "Layer (type)                 Output Shape              Param #   \n",
+      "=================================================================\n",
+      "conv2d_4 (Conv2D)            (None, 126, 30, 24)       240       \n",
+      "_________________________________________________________________\n",
+      "max_pooling2d_3 (MaxPooling2 (None, 63, 15, 24)        0         \n",
+      "_________________________________________________________________\n",
+      "activation_6 (Activation)    (None, 63, 15, 24)        0         \n",
+      "_________________________________________________________________\n",
+      "conv2d_5 (Conv2D)            (None, 61, 13, 48)        10416     \n",
+      "_________________________________________________________________\n",
+      "max_pooling2d_4 (MaxPooling2 (None, 30, 6, 48)         0         \n",
+      "_________________________________________________________________\n",
+      "activation_7 (Activation)    (None, 30, 6, 48)         0         \n",
+      "_________________________________________________________________\n",
+      "conv2d_6 (Conv2D)            (None, 28, 6, 48)         6960      \n",
+      "_________________________________________________________________\n",
+      "activation_8 (Activation)    (None, 28, 6, 48)         0         \n",
+      "_________________________________________________________________\n",
+      "flatten_2 (Flatten)          (None, 8064)              0         \n",
+      "_________________________________________________________________\n",
+      "dropout_3 (Dropout)          (None, 8064)              0         \n",
+      "_________________________________________________________________\n",
+      "dense_3 (Dense)              (None, 64)                516160    \n",
+      "_________________________________________________________________\n",
+      "activation_9 (Activation)    (None, 64)                0         \n",
+      "_________________________________________________________________\n",
+      "dropout_4 (Dropout)          (None, 64)                0         \n",
+      "_________________________________________________________________\n",
+      "dense_4 (Dense)              (None, 5)                 325       \n",
+      "_________________________________________________________________\n",
+      "activation_10 (Activation)   (None, 5)                 0         \n",
+      "=================================================================\n",
+      "Total params: 534,101\n",
+      "Trainable params: 534,101\n",
+      "Non-trainable params: 0\n",
+      "_________________________________________________________________\n"
+     ]
+    },
+    {
+     "data": {
+      "text/plain": [
+       "\"model.add(Conv2D(32, (3, 3),\\n    input_shape=(config.buckets, config.max_len, channels),\\n    activation='relu'))\\n\\nmodel.add(MaxPooling2D(pool_size=(2, 2)))\\n\\nmodel.add(Flatten())\\n\\nmodel.add(Dense(128, activation='relu'))\\nmodel.add(Dense(num_classes, activation='softmax'))\""
…
    "metadata": {
     "scrolled": true
    },
@@ -391,29 +378,49 @@
   },
   {
    "cell_type": "code",
-   "execution_count": 12,
+   "execution_count": 27,
    "metadata": {},
    "outputs": [
     {
      "name": "stdout",
      "output_type": "stream",
      "text": [
-      "Model: \"sequential_1\"\n",
+      "Model: \"sequential_2\"\n",
       "_________________________________________________________________\n",
       "Layer (type)                 Output Shape              Param #   \n",
       "=================================================================\n",
-      "conv2d_1 (Conv2D)            (None, 18, 9, 32)         320       \n",
+      "conv2d_4 (Conv2D)            (None, 126, 30, 24)       240       \n",
+      "_________________________________________________________________\n",
+      "max_pooling2d_3 (MaxPooling2 (None, 63, 15, 24)        0         \n",
+      "_________________________________________________________________\n",
+      "activation_6 (Activation)    (None, 63, 15, 24)        0         \n",
+      "_________________________________________________________________\n",
+      "conv2d_5 (Conv2D)            (None, 61, 13, 48)        10416     \n",
+      "_________________________________________________________________\n",
+      "max_pooling2d_4 (MaxPooling2 (None, 30, 6, 48)         0         \n",
+      "_________________________________________________________________\n",
+      "activation_7 (Activation)    (None, 30, 6, 48)         0         \n",
+      "_________________________________________________________________\n",
+      "conv2d_6 (Conv2D)            (None, 28, 6, 48)         6960      \n",
       "_________________________________________________________________\n",
-      "max_pooling2d_1 (MaxPooling2 (None, 9, 4, 32)          0         \n",
+      "activation_8 (Activation)    (None, 28, 6, 48)         0         \n",
       "_________________________________________________________________\n",
-      "flatten_1 (Flatten)          (None, 1152)              0         \n",
+      "flatten_2 (Flatten)          (None, 8064)              0         \n",
       "_________________________________________________________________\n",
-      "dense_1 (Dense)              (None, 128)               147584    \n",
+      "dropout_3 (Dropout)          (None, 8064)              0         \n",
       "_________________________________________________________________\n",
-      "dense_2 (Dense)              (None, 5)                 645       \n",
+      "dense_3 (Dense)              (None, 64)                516160    \n",
+      "_________________________________________________________________\n",
+      "activation_9 (Activation)    (None, 64)                0         \n",
+      "_________________________________________________________________\n",
+      "dropout_4 (Dropout)          (None, 64)                0         \n",
+      "_________________________________________________________________\n",
+      "dense_4 (Dense)              (None, 5)                 325       \n",
+      "_________________________________________________________________\n",
+      "activation_10 (Activation)   (None, 5)                 0         \n",
       "=================================================================\n",
-      "Total params: 148,549\n",
-      "Trainable params: 148,549\n",
+      "Total params: 534,101\n",
+      "Trainable params: 534,101\n",
       "Non-trainable params: 0\n",
       "_________________________________________________________________\n"
      ]
@@ -426,90 +433,801 @@
   },
   {
    "cell_type": "code",
…
    "metadata": {
     "scrolled": true
    },
@@ -391,29 +420,49 @@
   },
   {
    "cell_type": "code",
-   "execution_count": 12,
+   "execution_count": 26,
    "metadata": {},
    "outputs": [
     {
      "name": "stdout",
      "output_type": "stream",
      "text": [
-      "Model: \"sequential_1\"\n",
+      "Model: \"sequential_2\"\n",
       "_________________________________________________________________\n",
       "Layer (type)                 Output Shape              Param #   \n",
       "=================================================================\n",
-      "conv2d_1 (Conv2D)            (None, 18, 9, 32)         320       \n",
+      "conv2d_4 (Conv2D)            (None, 126, 30, 24)       240       \n",
+      "_________________________________________________________________\n",
+      "max_pooling2d_3 (MaxPooling2 (None, 63, 15, 24)        0         \n",
+      "_________________________________________________________________\n",
+      "activation_6 (Activation)    (None, 63, 15, 24)        0         \n",
+      "_________________________________________________________________\n",
+      "conv2d_5 (Conv2D)            (None, 61, 13, 48)        10416     \n",
+      "_________________________________________________________________\n",
+      "max_pooling2d_4 (MaxPooling2 (None, 30, 6, 48)         0         \n",
+      "_________________________________________________________________\n",
+      "activation_7 (Activation)    (None, 30, 6, 48)         0         \n",
+      "_________________________________________________________________\n",
+      "conv2d_6 (Conv2D)            (None, 28, 6, 48)         6960      \n",
+      "_________________________________________________________________\n",
+      "activation_8 (Activation)    (None, 28, 6, 48)         0         \n",
       "_________________________________________________________________\n",
-      "max_pooling2d_1 (MaxPooling2 (None, 9, 4, 32)          0         \n",
+      "flatten_2 (Flatten)          (None, 8064)              0         \n",
       "_________________________________________________________________\n",
-      "flatten_1 (Flatten)          (None, 1152)              0         \n",
+      "dropout_3 (Dropout)          (None, 8064)              0         \n",
       "_________________________________________________________________\n",
-      "dense_1 (Dense)              (None, 128)               147584    \n",
+      "dense_3 (Dense)              (None, 64)                516160    \n",
       "_________________________________________________________________\n",
-      "dense_2 (Dense)              (None, 5)                 645       \n",
+      "activation_9 (Activation)    (None, 64)                0         \n",
+      "_________________________________________________________________\n",
+      "dropout_4 (Dropout)          (None, 64)                0         \n",
+      "_________________________________________________________________\n",
+      "dense_4 (Dense)              (None, 5)                 325       \n",
+      "_________________________________________________________________\n",
+      "activation_10 (Activation)   (None, 5)                 0         \n",
       "=================================================================\n",
-      "Total params: 148,549\n",
-      "Trainable params: 148,549\n",
+      "Total params: 534,101\n",
+      "Trainable params: 534,101\n",
       "Non-trainable params: 0\n",
       "_________________________________________________________________\n"
      ]
@@ -426,61 +475,795 @@
   },
   {
    "cell_type": "code",
…
